conv_lstm_model.pth (torch, 22808 bytes, 5 tensors)

lstm.weight_ih_l0 f4 [128, 5]
000000 ef d9 3c 3d 4d 79 40 bd 64 f5 c4 3d a3 40 0a bd
       0.046106275 -0.04699068 0.09617117 -0.03375305
000010 ae 9e 18 be 48 3e 27 be d3 d8 48 bc 05 17 0c be
       -0.14904281 -0.16332352 -0.012258726 -0.13680656
000020 5e 4e e5 3d 3f d5 de 3d 83 dd 33 3e 7d 0f 87 3d
       0.11196588 0.10880517 0.17564969 0.06594751
000030 e7 f1 e6 3c 92 3a 66 3d 41 63 87 3d 8b 3c d8 3d
       0.02819152 0.0562082 0.06610728 0.10558423
000040 d8 94 7f bd 97 65 6d bd f6 3a 07 be 0d 6e 20 3e
       -0.062397808 -0.05795821 -0.13206086 0.15666981
000050 44 ee c9 3d de 55 0c be e5 d0 89 3d 7b 35 2a 3e
       0.09859899 -0.1370463 0.067292966 0.16621964
000060 21 06 5f bd 42 ae 23 be c1 b7 ba 3d 7d 26 ca 3d
       -0.054449204 -0.15984443 0.091170795 0.09870622
000070 33 cc 03 3d 3e 50 d2 3c 7f d2 a1 3d 9d d0 08 3e
       0.03217716 0.025673028 0.07901477 0.1336083
000080 05 7d 23 bd 65 56 16 be 0b 2a b6 bc b0 c4 1e be
       -0.03991415 -0.14681394 -0.022236845 -0.15504718
000090 74 6c 9b bb 5b 8a 92 bd 84 27 b2 bd f9 0c 97 3b
       -0.004743153 -0.071552955 -0.08698943 0.0046097008
0000a0 86 04 9f bd 72 23 13 3d 98 f5 89 bd 67 a7 71 bb
       -0.07764535 0.035922475 -0.067362964 -0.0036873461
0000b0 7e 72 bf 3d 8f e4 c6 bc 4f 5f 94 bd 59 ac 4c bd
       0.093480095 -0.024278907 -0.07244741 -0.04996905
0000c0 2e 1b 02 be 25 17 fb bd 4d 57 e5 bd 75 c3 81 bc
       -0.1270568 -0.12260274 -0.11198292 -0.015840271
0000d0 28 7e 45 3d fb 6e a8 bd 80 67 e0 bd be c6 d0 3c
       0.048216015 -0.08224293 -0.10957241 0.025485393
0000e0 5f b6 82 3b 2b 07 19 3d 56 45 c0 bd 3b 2f 07 3e
       0.0039890255 0.03736035 -0.09388225 0.1320161
0000f0 88 b7 9d bc 02 d9 01 3e 47 89 10 3e b5 4c f4 3d
       -0.019252554 0.12680438 0.14114867 0.11928693
000100 fa f5 1d 3d fa 52 13 3e 10 96 cf 3c ca 60 19 3e
       0.03856466 0.14387122 0.02534011 0.14978328
000110 80 5d e7 3d 92 5e 49 3e 6a ff e3 bd a6 d3 13 be
       0.112971306 0.19664982 -0.11132701 -0.14436206
000120 54 e9 a7 bd d4 0e c6 bd 63 36 af bd aa 95 a3 3c
       -0.08198801 -0.09670797 -0.08555295 0.019968826
000130 09 d7 13 be 9a 79 3e 3e 9e b7 0c 3e 7a bd 41 3c
       -0.14437498 0.18601075 0.1374192 0.01182496
000140 0e 90 81 bb 0a 2a a4 3d 22 3c e5 3d a1 4c 6d bd
       -0.0039539402 0.08015831 0.1119311 -0.057934407
000150 31 d3 4c bc 97 54 94 3c 56 67 d7 3d d7 3f cc 3d
       -0.012501524 0.018106742 0.10517757 0.09973114
000160 7e 9c 1a 3c af d2 2c be 28 7d 25 bd 3d 94 14 be
       0.009436725 -0.16877244 -0.04040256 -0.14509673
000170 6a e0 1e bd a1 0d e1 bc 55 8a cf 3d 9b d6 06 be
       -0.038788237 -0.02747232 0.101338066 -0.13167803
000180 3d 91 5a bd c8 f3 39 3e c9 df 00 be 53 4c 31 3e
       -0.053361166 0.18159401 -0.12585367 0.17314272
000190 92 65 64 3c 8e c8 18 be 09 a7 5d 3d 6c dc 35 3e
       0.013940232 -0.14920256 0.054114375 0.17759866
0001a0 e6 df 4d bd 4b 61 32 3e a3 a0 e9 bd e1 59 f1 3d
       -0.050262354 0.17419927 -0.11407592 0.11784721
0001b0 03 77 07 be 4f a9 cb bd 19 80 10 be e1 b8 05 bd
       -0.13228993 -0.099444024 -0.14111365 -0.032647017
0001c0 63 74 60 3d ef a3 0f 3e 64 e8 15 3c b0 2e 04 bd
       0.054798495 0.1402738 0.0091496445 -0.032271087
0001d0 8a 05 e5 3d e0 98 f4 3d 63 26 a8 3d 22 dd bf 3d
       0.11182697 0.11943221 0.08210447 0.093683496
0001e0 e2 7e 14 be 58 ac 2b 3d 11 ff 0d 3c b4 de e7 bd
       -0.14501527 0.041912407 0.00866677 -0.11321774
0001f0 5e 1e ff bd 66 7a 5f bc 73 17 9f 3d 11 85 41 bd
       -0.12456964 -0.013640022 0.077681445 -0.047246043
000200 7a 58 2e be c5 22 a7 3d 84 4b ec 3a c2 3d dc bd
       -0.17025939 0.08160929 0.0018027877 -0.10753967
000210 bb 32 41 be 77 67 f0 bd 7b ff b0 bd 92 a7 95 3d
       -0.18867008 -0.11738484 -0.08642479 0.07307352
000220 b7 92 36 bb f4 6d d4 bd 49 33 a5 bd 42 72 a0 bc
       -0.0027858445 -0.103725344 -0.080664225 -0.019585732
000230 75 a8 34 3d a5 b4 da 3d d6 70 2e 3e 6d 8c 99 bd
       0.044105966 0.106789865 0.17035231 -0.07497487
000240 c5 d8 44 bd f2 0c 00 be e3 62 10 be dc 56 12 bd
       -0.04805829 -0.12504938 -0.14100222 -0.035727367
000250 86 c1 54 3c 5f 9b 1d 3d 35 62 0e 3e 55 b1 a3 3c
       0.012985593 0.03847825 0.1390465 0.01998202
000260 1d 4f bd 3d d0 41 e4 3d 7f c7 a4 bd 16 b2 01 be
       0.09243605 0.11145365 -0.08045863 -0.1266559
000270 ca 8e a9 bd f1 97 fc bd ce c2 6e 3c aa cf 3f 3d
       -0.08279188 -0.12333668 0.014572812 0.046828903
000280 e6 f4 01 bd c1 20 88 3b 85 59 40 bd 5f 51 9e 3d
       -0.031727694 0.004154295 -0.046960372 0.07730364
000290 91 d3 00 be 98 73 c2 3d 81 61 40 bd b6 ca 17 bd
       -0.12580706 0.09494704 -0.046967987 -0.037058555
0002a0 07 df d9 3d 69 92 e7 bd 8a 72 35 bd 35 c4 0f 3e
       0.10638242 -0.113072224 -0.044298686 0.14039691
0002b0 62 78 69 bc f7 77 0c be 6b b9 05 3e bd af 0c be
       -0.014249893 -0.13717638 0.13059013 -0.13738914
0002c0 a6 a9 90 bd 95 87 69 bd c7 e5 8c bb 75 2d 38 3e
       -0.07063608 -0.057014067 -0.0042998525 0.1798609
0002d0 4f fd f8 bd a0 04 dd 3d 09 52 d5 3d ca 33 ba 3d
       -0.1215769 0.10791898 0.104160376 0.09091909
0002e0 8c a8 00 3e e1 e3 fe 3c 1e 35 c9 bc 4c 49 fa 3d
       0.12564296 0.03111452 -0.024561461 0.122210115
0002f0 d7 c8 67 3c 85 b5 78 bd 75 24 2e 3e 41 7b 60 bd
       0.014147005 -0.060719986 0.17006095 -0.054805044
000300 3d e9 a5 bd 6e 99 92 3d 9a 9d 1d 3e 2b 84 89 3d
       -0.08101127 0.07158171 0.15392151 0.06714662
000310 0c f1 b7 bb fd bb c5 3d 5b 76 05 3e de 63 e9 bc
       -0.005613452 0.096549965 0.1303343 -0.028490003
000320 36 ab 7d bb 38 6f 31 3d 4b a7 d1 bd 81 93 91 bc
       -0.0038706786 0.043318957 -0.10236987 -0.01777053
000330 bf 9e 0b be fe f3 fb bd c8 6f 59 bd f8 91 98 3d
       -0.13634776 -0.12302397 -0.05308512 0.07449716
000340 54 49 0c 3d da ae f8 bd fd b7 fb bd 74 cc ab 3d
       0.03424962 -0.12142725 -0.12290952 0.08388606
000350 1c 4f ce bc 78 e0 c6 3c 47 88 8a 3d 6a 5c 69 3d
       -0.025184207 0.024276957 0.06764274 0.0569729
000360 71 9e 4d 3d 97 81 45 3e b9 a1 4d 3e ac ca ba 3d
       0.05019993 0.19287716 0.20081224 0.09120688
000370 46 66 03 be 76 20 04 3e e5 ce 5c 3d d4 f7 e1 3d
       -0.12831983 0.12903008 0.053908248 0.110335976
000380 b6 51 0e bc 2e ec 4b 3e 55 c9 a3 bd cd 49 bf bc
       -0.008686474 0.19914314 -0.079973854 -0.02335062
000390 5d 36 db bc 28 be ba 3d c5 2a 2c be 69 04 01 bd
       -0.02675932 0.09118301 -0.1681319 -0.031498346
0003a0 34 ba d9 3d 81 94 15 3d 07 ed 74 3d 38 1f 63 bd
       0.106312186 0.036518577 0.05979636 -0.055449694
0003b0 7c 4b fd 3c d7 90 dc bd 5c 4e 3e 3e 98 cb b3 3d
       0.030919783 -0.107698135 0.18584579 0.08779067
0003c0 3a aa e2 bd 78 f9 4a 3c f7 5f d4 3d c9 84 41 3e
       -0.110676244 0.01238858 0.10369866 0.1889831
0003d0 6d 8c cb bd ff cb aa bd 61 07 d1 3b 64 47 46 3c
       -0.099388935 -0.083396904 0.0063790535 0.012101982
0003e0 b9 06 68 3d 16 cb 21 3e d3 f5 ba bd 46 ac 0e 3e
       0.056647036 0.15800127 -0.091289185 0.13932905
0003f0 24 57 3d be c0 78 33 3d 82 88 0d 3e 9f bb 0a be
       -0.18490273 0.043816328 0.13821605 -0.13548134

lstm.weight_hh_l0 f4 [128, 32]
000000 75 4b 07 bd ab d7 b0 bd 1b d1 3d 3e a5 cb 5a bd
       -0.033030946 -0.086348854 0.18536799 -0.053416867
000010 6a 6a 18 3e af 95 df bd 17 46 86 3c f7 dc e7 3d
       0.14884344 -0.10917222 0.016390843 0.113214426
000020 b0 d9 a7 3d 12 55 9a bd c8 ab d8 bd 2b 6f c4 3b
       0.081958175 -0.07535757 -0.1057964 0.0059946976
000030 8a 75 93 bd 29 15 c1 bc 99 79 36 be a4 26 49 bd
       -0.07200153 -0.02356966 -0.17819823 -0.049109116
000040 c6 24 e0 bd f1 49 1c 3e b6 26 f6 bd a9 09 8a bd
       -0.10944514 0.15262581 -0.12019102 -0.06740124
000050 25 fb 85 3d 18 f8 63 3d 8e fe 29 3d 2d 8e 6c bd
       0.06542043 0.055656523 0.041502528 -0.057752777
000060 f9 f9 c6 bd ba dd a9 bd 6f 63 35 bd 87 2b 2a 3e
       -0.09715647 -0.08294244 -0.04428428 0.16618167
000070 fe 8c 99 3d c9 35 98 3d 26 41 27 be c5 6d 15 be
       0.07497595 0.07432134 -0.16333446 -0.14592655
000080 ac 42 23 3d 24 ce 2b be f2 33 4c bd f6 43 04 bd
       0.039858505 -0.16777855 -0.049854226 -0.032291375
000090 0b dc ac bc 2d 36 a2 bc 8e 37 a1 3d 18 15 12 3e
       -0.021101018 -0.019801224 0.07871924 0.14265859
0000a0 75 92 2a 3e 77 5d 40 3e 14 c2 c8 3d a4 1e ed bd
       0.16657431 0.18785654 0.098026425 -0.1157811
0000b0 8c 04 de 3d 3a f7 55 bc 69 9c 7a 3d 8c 12 21 3d
       0.10840711 -0.013059432 0.06118432 0.03932433
0000c0 4a 1b f5 3d 4f 9e 73 3d 68 a1 db bd b4 06 44 be
       0.119680956 0.059477147 -0.10724145 -0.19143182
0000d0 ea 33 51 3d 4b 12 de 3d 63 8c 25 3e 17 f9 07 be
       0.0510749 0.10843333 0.16166835 -0.13278614
0000e0 96 27 40 bd fe 95 ed bd d3 85 e2 3c c4 72 9d bd
       -0.046912752 -0.11600874 0.027651703 -0.076879054
0000f0 9d e7 ab bd 05 ea 0d be e2 5d a8 3d c9 e7 7a bd
       -0.08393786 -0.13858803 0.08221032 -0.061256204
000100 f7 91 90 bd 3d 03 20 3b b6 a9 68 3d 6a 17 67 bd
       -0.070590906 0.0024415993 0.056802474 -0.056418814
000110 2f 8c 13 bd 99 05 12 3e 97 31 d9 3d 16 70 f4 bd
       -0.03602236 0.14259948 0.10605162 -0.11935441
000120 f5 bd 84 bd 48 c7 f3 3d e3 38 a8 3d d2 a8 92 3c
       -0.06481544 0.11903244 0.08213975 0.017902765
000130 c1 f9 be bd 93 07 07 3e f3 89 09 3e 9c 26 01 be
       -0.093249805 0.13186483 0.1343153 -0.12612385
000140 21 17 5b bd 96 c2 15 be aa 12 8b bc 7f c4 06 3e
       -0.053488854 -0.1462501 -0.016976673 0.13160895
000150 47 c7 d3 3b 57 57 34 be 51 f4 4a be 75 8b 15 3d
       0.0064629647 -0.17611443 -0.19819762 0.03650995
000160 d8 db c7 bd a5 45 df 3d fc cc 7f 3d fe 07 7d 3d
       -0.09758729 0.109019555 0.062451348 0.0617752
000170 f5 32 f5 3c 00 cb 8d 3d 88 9f 0d 3e 5a 4f bd bd
       0.029931525 0.06923485 0.13830388 -0.09243651
000180 c0 2b e7 bc cb e5 b7 3d 7e 51 64 3d a1 29 c8 bc
       -0.028219104 0.089793764 0.05574178 -0.024433913
000190 c4 51 fe 3d a4 ac a5 bd 44 b4 5b bc 63 f5 bf bd
       0.12417939 -0.08089569 -0.013409678 -0.09372976
0001a0 90 1f 7b bd 4f 38 18 bc 43 50 09 3e 4f e7 53 bd
       -0.061309397 -0.009290769 0.13409524 -0.051734265
0001b0 7e ed d0 bd c6 bb b0 bd a8 d9 5d 3d 7c 19 e3 3d
       -0.10201548 -0.08629565 0.05416265 0.11088845
0001c0 70 8d d0 3c 0d 8f e1 3c 83 40 d0 bd 7d 69 17 3e
       0.025458068 0.027534032 -0.10168555 0.14786334
0001d0 e1 34 0b 3d d4 57 10 be 12 27 26 bd 56 80 c2 3b
       0.033985976 -0.14096004 -0.040564604 0.005935709
0001e0 19 22 45 3d 44 d6 10 3e 92 f8 23 3e d0 11 f4 3a
       0.04812822 0.14144236 0.16012791 0.0018621031
0001f0 f3 a6 2a be 52 23 e5 3d 14 4a 89 3d 6e 65 49 bc
       -0.16665249 0.111883774 0.067035824 -0.012292249
000200 7b 93 d5 bd 47 dc ae bd fe 11 90 3d 83 33 06 be
       -0.1042852 -0.08538108 0.07034682 -0.13105588
000210 e5 be 06 bd 5f bf a8 3d 6a f6 6d bd 2f fa 33 be
       -0.032896895 0.08239626 -0.058096327 -0.17575906
000220 bd 38 7a 3d 0f b0 89 bd eb a0 23 3e 36 f8 12 3e
       0.061089266 -0.06723034 0.15979354 0.14352497
000230 e2 8f 14 3e 5a e5 18 be 65 7d 28 bc ed 8c 4d 3d
       0.14508012 -0.1493124 -0.010283803 0.050183225
000240 f2 6e 4f 3d 12 42 c9 bd 56 dd 23 3e d3 13 2f be
       0.050642915 -0.09827055 0.16002402 -0.17097406
000250 15 06 a6 bd ce 6a d2 bc 65 15 c8 bd 05 d9 af 3d
       -0.08106629 -0.025685694 -0.09769706 0.08586315
000260 c9 10 9a 3d 63 f3 af 3d 8d ed 8d bd 99 85 9e bd
       0.07522733 0.08591344 -0.06930075 -0.077403255
000270 d2 9d dd 3c c8 63 2a bc b3 da 81 bd e5 31 ec 3d
       0.027052794 -0.010399766 -0.06340542 0.11532954
000280 8a f8 be 3d 8f 43 0a be e7 2b 35 3e a7 82 78 3d
       0.09324749 -0.13502334 0.17692529 0.060671475
000290 13 c0 0b 3d 52 1d 85 3d a5 d7 7f 3d 23 80 3a bd
       0.034118723 0.06499733 0.062461514 -0.045532357
0002a0 67 eb b4 3d 0a 26 24 3e 3b e2 73 bd 38 55 55 bd
       0.08833962 0.16030136 -0.059541922 -0.052083224
0002b0 6b 1d 56 3a 88 66 9e bc e2 3a 19 be 4b b2 00 3c
       0.0008167836 -0.019336 -0.14963868 0.007855008
0002c0 46 e8 60 bd 42 e4 90 3d 7a 11 0d 3e 49 91 f5 3d
       -0.054909013 0.07074787 0.13776198 0.119906016
0002d0 6f 80 0c 3e 9f 91 af bc 65 f0 0b 3e d1 6b 83 3d
       0.13720869 -0.021431742 0.13665922 0.06417049
0002e0 ea 86 8b bc da cc ae bd 1e 5f 06 3e 65 9c 05 3e
       -0.017032105 -0.08535166 0.13122222 0.13047941
0002f0 6e 25 29 3d ad 71 00 3e 5b 89 a1 3d a4 a0 72 3d
       0.04129546 0.12543364 0.078875266 0.05923523
000300 6d ab 94 bd a3 9c fe 3d e1 99 07 bd 8c cf ae 3d
       -0.072592594 0.1243222 -0.033105735 0.0853568
000310 61 e1 a4 bd e5 8b 84 3d 17 04 5c bd 84 41 2f be
       -0.080508 0.06471995 -0.053714838 -0.17114836
000320 f2 31 31 bd b5 3a 45 3d ae fd 3d 3e 68 fc 72 bd
       -0.043260522 0.04815169 0.18553802 -0.059322745
000330 45 99 ec bc 3f 10 ef 3d a1 8d 12 3e a0 fe a2 bc
       -0.028881678 0.116730206 0.1431184 -0.019896805
000340 35 33 29 3d c7 a3 f2 3d 8e 66 05 3d e9 6b dd bd
       0.0413086 0.11847644 0.032568507 -0.10811598
000350 4b 4c 41 be ef 87 f7 bb 07 a2 dc bd b4 3a 05 3e
       -0.1887676 -0.0075540463 -0.10773092 0.13010675
000360 c4 f8 0c bd aa 47 a7 3c 47 2a e9 bd 32 1c cf bd
       -0.03441693 0.020419914 -0.11385017 -0.101128
000370 c5 c5 47 be 94 f8 94 3c 8d 13 cb bd 2a fb 12 be
       -0.19509037 0.018184938 -0.099158384 -0.14353624
000380 ff 79 ae 3a 7f ee ec bd 69 08 a8 3d f7 04 d6 bc
       0.0013311504 -0.11568927 0.08204729 -0.026125414
000390 53 5e 27 3e fb 64 a2 3d eb 8b d6 3d f2 38 e4 3d
       0.16344576 0.07929417 0.10475906 0.11143674
0003a0 4c 50 1a be 93 e5 24 3e 2a 46 10 3e b1 f3 53 3d
       -0.15069693 0.161032 0.14089265 0.051746074
0003b0 a6 fd b2 3d a4 df 04 bc 06 6a a3 3d c7 40 c6 bc
       0.08739786 -0.008109961 0.07979207 -0.02420081
0003c0 bc 6d 73 bd 84 85 3e bd e5 b6 d7 bd e6 2c 32 be
       -0.059430823 -0.04651405 -0.10532931 -0.1739994
0003d0 06 59 a5 bb 54 5e f7 bd b5 1c 07 3d 3e d7 2b 3e
       -0.005046013 -0.120785385 0.03298636 0.16781327
0003e0 8e e5 f1 bd d7 23 a3 3d 8d 0c ba 3d cc 6a 75 bd
       -0.11811362 0.0796582 0.09084425 -0.059916303
0003f0 52 8a 6a 3d ac ad d8 bd 85 2a e3 3c a6 90 10 3e
       0.05726082 -0.1058 0.027730236 0.14117679

lstm.bias_ih_l0 f4 [128]
000000 73 45 46 3d db 8a 4d 3d 00 a9 18 3e a4 34 f5 3c
       0.048406076 0.05018125 0.14908218 0.029932328
000010 30 aa d3 bd f3 e3 45 bd 87 8f 42 3e 55 3c af 3c
       -0.10335195 -0.048313092 0.19000064 0.021391073
000020 47 ef 88 3c 6b ef 9e 3d ce ef 94 3d 8e 92 e5 bd
       0.016715659 0.07760509 0.072723016 -0.11209594
000030 db 51 34 3d 87 03 09 3e 5c d8 18 bd b5 d8 7e bd
       0.044023376 0.13380252 -0.03731571 -0.062218387
000040 3e 7e 17 be 4e 3e 25 be cd ed 0c 3d 80 77 fc 3d
       -0.14794251 -0.16137049 0.034406472 0.1232748
000050 60 3f 15 be 5c 14 f0 bd e3 88 1f be 9b 0f 0e 3e
       -0.14574957 -0.11722633 -0.15579562 0.1387314
000060 2e 77 00 3d 53 f1 d4 3d e1 f8 16 3e 06 bb ac bd
       0.03136366 0.103975914 0.14743377 -0.084341094
000070 63 35 c2 bd f4 52 05 be 51 ac ea bd e4 39 f2 3d
       -0.09482839 -0.13019925 -0.11458648 0.11827448
000080 0a 7a d2 bd 5e cf 72 3d 5f 08 30 3e 41 aa ae bd
       -0.10277183 0.059279792 0.17190693 -0.08528567
000090 d2 d5 ca bd e3 02 b9 bd 23 d5 e4 3c dc 93 0e be
       -0.09904064 -0.09033754 0.027933663 -0.13923591
0000a0 35 09 a3 3c 09 37 a3 3c 72 cc 1b be 01 6c 2e 3e
       0.019901851 0.019923704 -0.15214708 0.17033388
0000b0 b2 63 03 3e a4 04 4c 3e 81 46 dc 3b 15 42 48 3e
       0.12831 0.19923645 0.006722272 0.19556458
0000c0 e3 18 57 3d d9 8c 9c 3d d6 b9 bd bd a4 01 39 3e
       0.05251397 0.07644052 -0.09263961 0.18067032
0000d0 93 06 b9 bc e6 19 f9 3d e4 e2 78 bd e9 37 22 3e
       -0.022586143 0.12163143 -0.060763255 0.1584164
0000e0 34 3a 39 3d 30 44 8a 3d 72 b2 17 be 3a e8 ab bc
       0.045221522 0.06751287 -0.14814165 -0.020984758
0000f0 4d 4f 0f 3c 72 96 08 3e 0e fc 0d be e0 e8 1c be
       0.008746934 0.1333864 -0.13865682 -0.1532321
000100 6b ff 24 3d 75 ff df 3c 94 fd 58 3d e2 2f 4c be
       0.040282648 0.027343491 0.052976206 -0.19940141
000110 17 98 03 be 15 0b f1 bd df 57 b8 3d b0 a8 8e 3c
       -0.12850986 -0.11769692 0.09001135 0.01741442
000120 f2 36 fe 3d 0a ee a3 bd b3 a1 7c 3d df 46 61 bd
       0.12412824 -0.08004387 0.061677646 -0.05499923
000130 8c 54 d4 bd 7f 01 12 be 5a f4 15 bc 53 e7 72 3d
       -0.103676885 -0.14258383 -0.009152496 0.05930264
000140 9b 38 35 be c7 6b 13 3c d5 11 2c be 42 0c fc 3d
       -0.17697375 0.008997864 -0.16803677 0.123070255
000150 3e 60 90 3d 2e d9 07 be 79 47 2a 3d 74 76 d4 bb
       0.07049607 -0.13266441 0.041572068 -0.0064838473
000160 11 7f e9 bd ef 0d bf bd 8e f1 ff 3d a5 ad 84 3d
       -0.11401189 -0.093288295 0.12497245 0.064784326
000170 8f d8 02 3b 99 49 10 3e e8 93 3a 3e 87 2a c9 bd
       0.0019965505 0.14090575 0.18220484 -0.098225646
000180 64 22 99 3c 65 31 cf bd da ba 3e 3d 57 50 34 bd
       0.018693157 -0.10116843 0.046564914 -0.04402193
000190 2a 06 e7 bd a4 11 22 be 97 0f a0 bd ae 78 fa 3d
       -0.112804726 -0.15827042 -0.078154735 0.12230049
0001a0 1c e6 80 3d 7c fc ed bd 1e 42 9a bd b1 81 0d be
       0.0629389 -0.11620423 -0.07532142 -0.13819005
0001b0 83 25 30 3e a8 f8 93 bd ad 81 2f be 13 a6 ad bd
       0.1720181 -0.07225162 -0.17139311 -0.08478942
0001c0 80 de b1 3d 40 4f 25 3e a6 3e fe 3d 5d 7d 81 bc
       0.08685017 0.16143513 0.12414293 -0.015806848
0001d0 65 e9 ec bc 42 16 28 3e c4 de 1f be 35 92 95 3d
       -0.028919885 0.1641474 -0.15612322 0.073032774
0001e0 09 0a c0 bc 52 82 12 be c5 6f 69 3d 75 35 1e be
       -0.023442285 -0.14307526 0.056991357 -0.1545008
0001f0 a4 3f 5a 3d 19 2a 26 3e b0 31 20 3e 50 a1 bb 3d
       0.05328335 0.16226996 0.15643954 0.09161627

lstm.bias_hh_l0 f4 [128]
000000 04 05 80 bd 05 ef bc 3b b2 8d 8d 3d 2c a0 ea bc
       -0.06250957 0.005765798 0.06911792 -0.028640829
000010 3b 45 e1 3d b8 b8 0d be b7 a1 04 be cd 27 1b bd
       0.10999533 -0.13839996 -0.12952314 -0.037879754
000020 4c 71 31 3e 50 72 2f 3d e0 3e 2d 3e 57 72 3b 3e
       0.17328376 0.042833626 0.16918516 0.18305336
000030 0f 78 f6 3d cb b5 cb 3c 3a 4f 0b be 6c 49 25 3e
       0.12034618 0.02486696 -0.13604441 0.1614129
000040 b9 bd 63 3d ec 1f da bc 7d f0 45 be 24 9e c5 bd
       0.055600855 -0.02662655 -0.1933002 -0.096493036
000050 2b 4c 6b bd 87 c3 ec bd a9 f5 81 3d ea 73 c9 3d
       -0.057445686 -0.115607314 0.06345684 0.09836562
000060 93 5f f3 3c b5 85 29 3b 16 86 ec bc 26 a3 7d bd
       0.02970866 0.002586705 -0.02887253 -0.06192317
000070 79 5e e5 3d ad 9d 4b 3c 5d c2 bb bd 6c 6a 5b 3d
       0.1119966 0.01242773 -0.09167931 0.05356829
000080 8b 3f 03 3d de 3f d5 3b b6 22 9b 3d 4f e9 6f 3d
       0.03204302 0.0065078577 0.0757498 0.05857211
000090 9b cc 65 3d d8 a3 32 3d c8 da e8 3d 12 9b 2c be
       0.05610333 0.043613285 0.11369854 -0.1685603
0000a0 41 07 fe 3d 92 66 16 3e 0d 70 e2 3d 8b 5d 12 3e
       0.12403727 0.14687565 0.11056528 0.14293496
0000b0 ae 55 2c 3e de cc 03 bd d6 a5 e5 3d 78 a4 d1 bb
       0.16829559 -0.0321778 0.11213271 -0.00639778
0000c0 b7 89 dc bd ed 13 c9 3d aa 05 a4 bd 19 89 fa 3d
       -0.107684545 0.09818254 -0.08008893 0.122331806
0000d0 68 77 b0 3d e9 96 c9 bc f5 b1 19 be 40 8c dd 3c
       0.08616525 -0.024608092 -0.15009291 0.027044415
0000e0 ec dd 14 3d 0b 18 6e bd d0 d0 49 bc 02 e8 db 3d
       0.036344454 -0.058128398 -0.012317851 0.10737611
0000f0 a2 f2 e7 bd f7 a6 1a 3e 87 aa ac 3d 66 6b bd bd
       -0.113255754 0.15102755 0.08430963 -0.09249
000100 e0 d9 d0 3c 04 ab 8d bd 89 12 c1 bd de 7b 84 bd
       0.025494516 -0.06917384 -0.094273634 -0.06468938
000110 fb 4d 61 3c 14 f3 01 be 36 c0 f9 bd 42 42 9d bd
       0.013751502 -0.12690383 -0.121948645 -0.07678653
000120 35 e9 98 bd ee 80 d2 bd 48 27 dd bd 75 83 8c bb
       -0.07466356 -0.10278498 -0.10798508 -0.004288132
000130 a0 4e c7 bd cf d1 3e be 40 4e 09 bc ce ff 22 3e
       -0.097317934 -0.18634723 -0.008380473 0.15917894
000140 cf e0 b9 3d 66 ae 0f 3d c8 53 ca bd d0 e3 05 3e
       0.09076082 0.03507843 -0.09879261 0.13075185
000150 14 96 33 be 87 3f bf bc 3d 34 0a bd a4 0c 0c be
       -0.17537719 -0.023345722 -0.033741225 -0.13676697
000160 e5 94 06 be b1 8d 1f 3e 49 96 99 3c 80 ea 4d be
       -0.13142736 0.15581395 0.01874842 -0.20108986
000170 b8 4f c3 bd 23 8d 79 bc 49 8d 10 3d d5 6e 7e bd
       -0.095366895 -0.0152314035 0.03529099 -0.062117416
000180 05 65 1c be 70 bc 94 bc 4b 57 2e bc 5d 56 09 3e
       -0.15272911 -0.01815626 -0.010640929 0.13411851
000190 5e f0 e1 bd 96 65 3d 3d 61 67 61 ba e4 2f dd 3c
       -0.110321745 0.046239458 -0.00085984735 0.027000375
0001a0 24 27 b2 bd 16 88 e4 3c ac 40 49 3e 72 d2 cc bd
       -0.08698872 0.027896922 0.19653577 -0.10001077
0001b0 67 9f a8 bd 01 c7 26 3e 4a d9 95 3c 31 b6 e2 ba
       -0.082335286 0.16286851 0.018292088 -0.0017296729
0001c0 40 22 f1 bd d6 59 c3 bd 09 a6 06 3d 8e e0 66 3d
       -0.11774111 -0.09538619 0.032873187 0.056366496
0001d0 d1 b2 8f bd 55 d6 ca bd 33 6f 56 bd 31 dd c6 bd
       -0.070165284 -0.09904162 -0.05235214 -0.09710158
0001e0 96 c1 fa 3d da c7 90 bd 11 77 13 3e a4 11 fd bd
       0.12243955 -0.07069369 0.14400889 -0.1235688
0001f0 d4 c5 08 be 78 bc 3c be 92 14 cc 3c ab 68 41 bc
       -0.13356715 -0.1843127 0.024912152 -0.01180474

fc.weight f4 [1, 32]
000000 30 e8 10 3d dc 14 d5 bd 0c 47 67 bd 63 44 86 bd
       0.03537768 -0.10404369 -0.05646424 -0.065560125
000010 be 0c ac bc 24 f8 10 3e aa 28 42 3e ea 86 7e 3c
       -0.02100217 0.14157158 0.18960825 0.015535096
000020 fd 26 c6 bd a4 9e 19 be 51 91 b0 3d e2 bd 24 be
       -0.09675405 -0.15001923 0.08621467 -0.1608806
000030 b1 93 4d be bd 2e 40 be 0a 77 e1 bd 97 33 0d 3e
       -0.20075871 -0.18767829 -0.11009033 0.13789211
000040 cb 9d 10 be cb 22 ae 3c 45 e3 82 bd b8 33 cb 3d
       -0.14122693 0.021256825 -0.063910045 0.09921974
000050 39 c1 ea bd 97 33 de bd 49 23 87 3d 58 88 a7 bb
       -0.114626355 -0.10849684 0.06598527 -0.005112689
000060 d8 6f fa 3d 2b dd 0d 3e 56 1c 25 3e bd 5a 97 3b
       0.12228364 0.138539 0.1612409 0.004618971
000070 65 de 2a bd 9b 82 00 3e 54 8c d0 3c 44 1d 08 be
       -0.041716 0.12549822 0.025457539 -0.13292414
